name: "12Net"
input: "data"
input_dim: 1
input_dim: 3
input_dim: 12
input_dim: 12
layer {
  name: "conv1"
  type: "Convolution"
  bottom: "data"
  top: "conv1"
  blobs {
…
    shape {
      dim: 10
      dim: 3
      dim: 3
      dim: 3
    }
  }
  blobs {
    data: -0.09853255
    data: 0.22800057
    data: 0.63386965
    data: 0.42186368
    data: -0.17767702
    data: 0.28392881
    data: -0.00806611
    data: -0.29639107
    data: -0.04033116
    data: 0.03156535
    shape {
      dim: 10
    }
  }
  param {
    lr_mult: 1
    decay_mult: 1
  }
  param {
    lr_mult: 2
    decay_mult: 0
  }
  convolution_param {
    num_output: 10
    kernel_size: 3
    stride: 1
    weight_filler {
      type: "xavier"
    }
    bias_filler {
      type: "constant"
      value: 0
    }
  }
}
layer {
  name: "PReLU1"
  type: "PReLU"
  bottom: "conv1"
  top: "conv1"
  blobs {
    data: -0.09882698
    data: 0.93231511
    data: 0.29605904
    data: 0.31168345
    data: 0.31492367
    data: 0.24214387
    data: 0.21270956
    data: 0.43111879
    data: 0.19570042
    data: 0.94165695
    shape {
      dim: 10
    }
  }
}
layer {
  name: "pool1"
  type: "Pooling"
  bottom: "conv1"
  top: "pool1"
  pooling_param {
    pool: MAX
    kernel_size: 2
    stride: 2
  }
}

layer {
  name: "conv2"
  type: "Convolution"
  bottom: "pool1"
  top: "conv2"
  blobs {
…
    shape {
      dim: 16
      dim: 10
      dim: 3
      dim: 3
    }
  }
  blobs {
…
    shape {
      dim: 16
    }
  }
  param {
    lr_mult: 1
    decay_mult: 1
  }
  param {
    lr_mult: 2
    decay_mult: 0
  }
  convolution_param {
    num_output: 16
    kernel_size: 3
    stride: 1
     weight_filler {
      type: "xavier"
    }
    bias_filler {
      type: "constant"
      value: 0
    }
  }
}
layer {
  name: "PReLU2"
  type: "PReLU"
  bottom: "conv2"
  top: "conv2"
  blobs {
…
    shape {
      dim: 16
    }
  }
}

layer {
  name: "conv3"
  type: "Convolution"
  bottom: "conv2"
  top: "conv3"
  blobs {
…
    shape {
      dim: 32
      dim: 16
      dim: 3
      dim: 3
    }
  }
  blobs {
…
    shape {
      dim: 32
    }
  }
  param {
    lr_mult: 1
    decay_mult: 1
  }
  param {
    lr_mult: 2
    decay_mult: 0
  }
  convolution_param {
    num_output: 32
    kernel_size: 3
    stride: 1
     weight_filler {
      type: "xavier"
    }
    bias_filler {
	  type: "constant"
      value: 0
    }
  }
}
layer {
  name: "PReLU3"
  type: "PReLU"
  bottom: "conv3"
  top: "conv3"
  blobs {
…
    shape {
      dim: 32
    }
  }
}


layer {
  name: "conv4-1"
  type: "Convolution"
  bottom: "conv3"
  top: "conv4-1"
  blobs {
…
    shape {
      dim: 2
      dim: 32
      dim: 1
      dim: 1
    }
  }
  blobs {
    data: -0.13914661
    data: 0.13914664
    shape {
      dim: 2
    }
  }
  param {
    lr_mult: 1
    decay_mult: 1
  }
  param {
    lr_mult: 2
    decay_mult: 0
  }
  convolution_param {
    num_output: 2
    kernel_size: 1
    stride: 1
     weight_filler {
      type: "xavier"
    }
    bias_filler {
      type: "constant"
      value: 0
    }
  }
}

layer {
  name: "conv4-2"
  type: "Convolution"
  bottom: "conv3"
  top: "conv4-2"
  blobs {
…
    shape {
      dim: 4
      dim: 32
      dim: 1
      dim: 1
    }
  }
  blobs {
    data: -0.03964125
    data: -0.01106460
    data: -0.00658561
    data: -0.08465947
    shape {
      dim: 4
    }
  }
  param {
    lr_mult: 1
    decay_mult: 1
  }
  param {
    lr_mult: 2
    decay_mult: 0
  }
  convolution_param {
    num_output: 4
    kernel_size: 1
    stride: 1
     weight_filler {
      type: "xavier"
	}
    bias_filler {
      type: "constant"
      value: 0
    }
  }
}
layer {
  name: "prob1"
  type: "Softmax"
  bottom: "conv4-1"
  top: "prob1"
}
