name: "12Net"
input: "data"
input_dim: 1
input_dim: 3
input_dim: 12
input_dim: 12
layer {
  name: "conv1"
  type: "Convolution"
  bottom: "data"
  top: "conv1"
  blobs {
…
    shape {
      dim: 10
      dim: 3
      dim: 3
      dim: 3
    }
  }
  blobs {
    data: 0.03092519
    data: 2.05748963
    data: 0.17851782
    data: -0.03855684
    data: 1.93974984
    data: 1.62505305
    data: -0.40252161
    data: -0.13384552
    data: -0.08407294
    data: -2.02305245
    shape {
      dim: 10
    }
  }
  param {
    lr_mult: 1
    decay_mult: 1
  }
  param {
    lr_mult: 2
    decay_mult: 0
  }
  convolution_param {
    num_output: 10
    kernel_size: 3
    stride: 1
    weight_filler {
      type: "xavier"
    }
    bias_filler {
      type: "constant"
      value: 0
    }
  }
}
layer {
  name: "PReLU1"
  type: "PReLU"
  bottom: "conv1"
  top: "conv1"
  blobs {
    data: -0.31997186
    data: -0.77842945
    data: -0.69040948
    data: -1.37045574
    data: 1.01516080
    data: 1.02347422
    data: 0.20969199
    data: -0.77049941
    data: 0.69301826
    data: 2.02458405
    shape {
      dim: 10
    }
  }
}
layer {
  name: "pool1"
  type: "Pooling"
  bottom: "conv1"
  top: "pool1"
  pooling_param {
    pool: MAX
    kernel_size: 2
    stride: 2
  }
}

layer {
  name: "conv2"
  type: "Convolution"
  bottom: "pool1"
  top: "conv2"
  blobs {
…
    shape {
      dim: 16
      dim: 10
      dim: 3
      dim: 3
    }
  }
  blobs {
…
    shape {
      dim: 16
    }
  }
  param {
    lr_mult: 1
    decay_mult: 1
  }
  param {
    lr_mult: 2
    decay_mult: 0
  }
  convolution_param {
    num_output: 16
    kernel_size: 3
    stride: 1
     weight_filler {
      type: "xavier"
    }
    bias_filler {
      type: "constant"
      value: 0
    }
  }
}
layer {
  name: "PReLU2"
  type: "PReLU"
  bottom: "conv2"
  top: "conv2"
  blobs {
…
    shape {
      dim: 16
    }
  }
}

layer {
  name: "conv3"
  type: "Convolution"
  bottom: "conv2"
  top: "conv3"
  blobs {
…
    shape {
      dim: 32
      dim: 16
      dim: 3
      dim: 3
    }
  }
  blobs {
…
    shape {
      dim: 32
    }
  }
  param {
    lr_mult: 1
    decay_mult: 1
  }
  param {
    lr_mult: 2
    decay_mult: 0
  }
  convolution_param {
    num_output: 32
    kernel_size: 3
    stride: 1
     weight_filler {
      type: "xavier"
    }
    bias_filler {
	  type: "constant"
      value: 0
    }
  }
}
layer {
  name: "PReLU3"
  type: "PReLU"
  bottom: "conv3"
  top: "conv3"
  blobs {
…
    shape {
      dim: 32
    }
  }
}


layer {
  name: "conv4-1"
  type: "Convolution"
  bottom: "conv3"
  top: "conv4-1"
  blobs {
…
    shape {
      dim: 2
      dim: 32
      dim: 1
      dim: 1
    }
  }
  blobs {
    data: 0.38513178
    data: -0.38513196
    shape {
      dim: 2
    }
  }
  param {
    lr_mult: 1
    decay_mult: 1
  }
  param {
    lr_mult: 2
    decay_mult: 0
  }
  convolution_param {
    num_output: 2
    kernel_size: 1
    stride: 1
     weight_filler {
      type: "xavier"
    }
    bias_filler {
      type: "constant"
      value: 0
    }
  }
}

layer {
  name: "conv4-2"
  type: "Convolution"
  bottom: "conv3"
  top: "conv4-2"
  blobs {
…
    shape {
      dim: 4
      dim: 32
      dim: 1
      dim: 1
    }
  }
  blobs {
    data: 0.07312614
    data: 0.01716940
    data: -0.08598477
    data: -0.03420297
    shape {
      dim: 4
    }
  }
  param {
    lr_mult: 1
    decay_mult: 1
  }
  param {
    lr_mult: 2
    decay_mult: 0
  }
  convolution_param {
    num_output: 4
    kernel_size: 1
    stride: 1
     weight_filler {
      type: "xavier"
	}
    bias_filler {
      type: "constant"
      value: 0
    }
  }
}
layer {
  name: "prob1"
  type: "Softmax"
  bottom: "conv4-1"
  top: "prob1"
}
